…
      <PANEL_log>2021-08-12 14:08:59.019931: I tensorflow/core/platform/cpu_feature_guard.cc:142] This TensorFlow binary is optimized with oneAPI Deep Neural Network Library (oneDNN)to use the following CPU instructions in performance-critical operations:  AVX AVX2
To enable them in other operations, rebuild TensorFlow with the appropriate compiler flags.
Model: "sequential"
_________________________________________________________________
Layer (type)                 Output Shape              Param #   
=================================================================
conv2d (Conv2D)              (None, 249, 187, 16)      448       
_________________________________________________________________
conv2d_1 (Conv2D)            (None, 247, 185, 32)      4640      
_________________________________________________________________
batch_normalization (BatchNo (None, 247, 185, 32)      128       
_________________________________________________________________
max_pooling2d (MaxPooling2D) (None, 123, 92, 32)       0         
_________________________________________________________________
flatten (Flatten)            (None, 362112)            0         
_________________________________________________________________
dense (Dense)                (None, 20)                7242260   
_________________________________________________________________
dense_1 (Dense)              (None, 2)                 42        
=================================================================
Total params: 7,247,518
Trainable params: 7,247,454
Non-trainable params: 64
_________________________________________________________________
None
Epoch 1/10
28/28 - 66s - loss: 1.2428 - accuracy: 0.4348 - val_loss: 3.0462 - val_accuracy: 0.6985
Epoch 2/10
28/28 - 64s - loss: 0.5063 - accuracy: 0.7428 - val_loss: 1.7160 - val_accuracy: 0.6985
…
      <PANEL_log>2021-08-12 14:20:18.536063: I tensorflow/core/platform/cpu_feature_guard.cc:142] This TensorFlow binary is optimized with oneAPI Deep Neural Network Library (oneDNN)to use the following CPU instructions in performance-critical operations:  AVX AVX2
To enable them in other operations, rebuild TensorFlow with the appropriate compiler flags.
Model: "sequential"
_________________________________________________________________
Layer (type)                 Output Shape              Param #   
=================================================================
conv2d (Conv2D)              (None, 63, 47, 16)        448       
_________________________________________________________________
conv2d_1 (Conv2D)            (None, 61, 45, 32)        4640      
_________________________________________________________________
batch_normalization (BatchNo (None, 61, 45, 32)        128       
_________________________________________________________________
max_pooling2d (MaxPooling2D) (None, 30, 22, 32)        0         
_________________________________________________________________
flatten (Flatten)            (None, 21120)             0         
_________________________________________________________________
dense (Dense)                (None, 20)                422420    
_________________________________________________________________
dense_1 (Dense)              (None, 2)                 42        
=================================================================
Total params: 427,678
Trainable params: 427,614
Non-trainable params: 64
_________________________________________________________________
None
Epoch 1/10
28/28 - 5s - loss: 1.3411 - accuracy: 0.4855 - val_loss: 3.2517 - val_accuracy: 0.3971
Epoch 2/10
28/28 - 5s - loss: 1.1875 - accuracy: 0.5471 - val_loss: 1.6224 - val_accuracy: 0.5368
…
      <PANEL_log>2021-08-12 14:21:17.011800: I tensorflow/core/platform/cpu_feature_guard.cc:142] This TensorFlow binary is optimized with oneAPI Deep Neural Network Library (oneDNN)to use the following CPU instructions in performance-critical operations:  AVX AVX2
To enable them in other operations, rebuild TensorFlow with the appropriate compiler flags.
Model: "sequential"
_________________________________________________________________
Layer (type)                 Output Shape              Param #   
=================================================================
conv2d (Conv2D)              (None, 63, 47, 16)        448       
_________________________________________________________________
conv2d_1 (Conv2D)            (None, 61, 45, 32)        4640      
_________________________________________________________________
batch_normalization (BatchNo (None, 61, 45, 32)        128       
_________________________________________________________________
max_pooling2d (MaxPooling2D) (None, 30, 22, 32)        0         
_________________________________________________________________
conv2d_2 (Conv2D)            (None, 28, 20, 32)        9248      
_________________________________________________________________
max_pooling2d_1 (MaxPooling2 (None, 14, 10, 32)        0         
_________________________________________________________________
conv2d_3 (Conv2D)            (None, 12, 8, 32)         9248      
_________________________________________________________________
max_pooling2d_2 (MaxPooling2 (None, 6, 4, 32)          0         
_________________________________________________________________
flatten (Flatten)            (None, 768)               0         
_________________________________________________________________
dense (Dense)                (None, 20)                15380     
_________________________________________________________________
dense_1 (Dense)              (None, 2)                 42        
=================================================================
Total params: 39,134
Trainable params: 39,070
Non-trainable params: 64
_________________________________________________________________
None
Epoch 1/100
28/28 - 4s - loss: 2.6816 - accuracy: 0.2319 - val_loss: 2.0891 - val_accuracy: 0.3750
Epoch 2/100
28/28 - 5s - loss: 2.5257 - accuracy: 0.2319 - val_loss: 1.8954 - val_accuracy: 0.3603
…
      <PANEL_log>2021-08-12 14:29:16.576282: I tensorflow/core/platform/cpu_feature_guard.cc:142] This TensorFlow binary is optimized with oneAPI Deep Neural Network Library (oneDNN)to use the following CPU instructions in performance-critical operations:  AVX AVX2
To enable them in other operations, rebuild TensorFlow with the appropriate compiler flags.
Model: "sequential"
_________________________________________________________________
Layer (type)                 Output Shape              Param #   
=================================================================
conv2d (Conv2D)              (None, 249, 187, 16)      448       
_________________________________________________________________
conv2d_1 (Conv2D)            (None, 247, 185, 32)      4640      
_________________________________________________________________
batch_normalization (BatchNo (None, 247, 185, 32)      128       
_________________________________________________________________
max_pooling2d (MaxPooling2D) (None, 123, 92, 32)       0         
_________________________________________________________________
conv2d_2 (Conv2D)            (None, 121, 90, 32)       9248      
_________________________________________________________________
max_pooling2d_1 (MaxPooling2 (None, 60, 45, 32)        0         
_________________________________________________________________
conv2d_3 (Conv2D)            (None, 58, 43, 32)        9248      
_________________________________________________________________
max_pooling2d_2 (MaxPooling2 (None, 29, 21, 32)        0         
_________________________________________________________________
flatten (Flatten)            (None, 19488)             0         
_________________________________________________________________
dense (Dense)                (None, 20)                389780    
_________________________________________________________________
dense_1 (Dense)              (None, 2)                 42        
=================================================================
Total params: 413,534
Trainable params: 413,470
Non-trainable params: 64
_________________________________________________________________
None
Epoch 1/10
28/28 - 77s - loss: 0.9412 - accuracy: 0.5217 - val_loss: 1.0036 - val_accuracy: 0.6103
Epoch 2/10
28/28 - 75s - loss: 0.6429 - accuracy: 0.5906 - val_loss: 0.5881 - val_accuracy: 0.6838
…
