…
      <PANEL_log>2021-07-14 23:49:24.855306: I tensorflow/core/platform/cpu_feature_guard.cc:142] This TensorFlow binary is optimized with oneAPI Deep Neural Network Library (oneDNN)to use the following CPU instructions in performance-critical operations:  AVX AVX2
To enable them in other operations, rebuild TensorFlow with the appropriate compiler flags.
Model: "sequential"
_________________________________________________________________
Layer (type)                 Output Shape              Param #   
=================================================================
conv2d (Conv2D)              (None, 249, 187, 16)      448       
_________________________________________________________________
conv2d_1 (Conv2D)            (None, 247, 185, 32)      4640      
_________________________________________________________________
batch_normalization (BatchNo (None, 247, 185, 32)      128       
_________________________________________________________________
max_pooling2d (MaxPooling2D) (None, 123, 92, 32)       0         
_________________________________________________________________
flatten (Flatten)            (None, 362112)            0         
_________________________________________________________________
dense (Dense)                (None, 20)                7242260   
_________________________________________________________________
dense_1 (Dense)              (None, 2)                 42        
=================================================================
Total params: 7,247,518
Trainable params: 7,247,454
Non-trainable params: 64
_________________________________________________________________
None
Epoch 1/10
progress = 0.0 / epoch
28/28 - 47s - loss: 0.5280 - accuracy: 0.7572 - val_loss: 0.8237 - val_accuracy: 0.7279
Epoch 2/10
progress = 0.1 / epoch
28/28 - 47s - loss: 0.1602 - accuracy: 0.9638 - val_loss: 0.2975 - val_accuracy: 0.8456
…
