…
      <PANEL_log>2021-07-22 23:36:31.530610: I tensorflow/core/platform/cpu_feature_guard.cc:142] This TensorFlow binary is optimized with oneAPI Deep Neural Network Library (oneDNN)to use the following CPU instructions in performance-critical operations:  AVX AVX2
To enable them in other operations, rebuild TensorFlow with the appropriate compiler flags.
Model: "sequential"
_________________________________________________________________
Layer (type)                 Output Shape              Param #   
=================================================================
conv2d (Conv2D)              (None, 187, 249, 16)      448       
_________________________________________________________________
conv2d_1 (Conv2D)            (None, 183, 245, 16)      6416      
_________________________________________________________________
batch_normalization (BatchNo (None, 183, 245, 16)      64        
_________________________________________________________________
max_pooling2d (MaxPooling2D) (None, 91, 122, 16)       0         
_________________________________________________________________
conv2d_2 (Conv2D)            (None, 87, 118, 32)       12832     
_________________________________________________________________
max_pooling2d_1 (MaxPooling2 (None, 43, 59, 32)        0         
_________________________________________________________________
conv2d_3 (Conv2D)            (None, 39, 55, 64)        51264     
_________________________________________________________________
max_pooling2d_2 (MaxPooling2 (None, 19, 27, 64)        0         
_________________________________________________________________
flatten (Flatten)            (None, 32832)             0         
_________________________________________________________________
dense (Dense)                (None, 20)                656660    
_________________________________________________________________
dense_1 (Dense)              (None, 2)                 42        
=================================================================
Total params: 727,726
Trainable params: 727,694
Non-trainable params: 32
_________________________________________________________________
None
Epoch 1/30
11/11 - 28s - loss: 0.6934 - accuracy: 0.6346 - val_loss: 0.6203 - val_accuracy: 0.7692
Epoch 2/30
11/11 - 28s - loss: 0.6081 - accuracy: 0.7212 - val_loss: 0.5272 - val_accuracy: 0.7692
…
